…
Namespace(config='afhq.yml', model_path='ckpts/ddpm/afhq_dog_4m.pt')
Namespace(data=Namespace(dataset='AFHQ', category='dog', image_size=256, channels=3, logit_transform=False, uniform_dequantization=False, gaussian_dequantization=False, random_flip=True, rescaled=True, num_workers=0), diffusion=Namespace(beta_schedule='linear', beta_start=0.0001, beta_end=0.02, num_diffusion_timesteps=1000))
Improved diffusion Model loaded.
INFO:root:Rank 0 device = cuda:0
DistributedDataParallel(
  (module): UnsupervisedTranslation(
    (source_gan_wrapper): DDPMDDIMWrapper(
      (generator): UNetModel(
        (time_embed): Sequential(
          (0): Linear(in_features=128, out_features=512, bias=True)
          (1): SiLU()
          (2): Linear(in_features=512, out_features=512, bias=True)
        )
        (input_blocks): ModuleList(
          (0): TimestepEmbedSequential(
            (0): Conv2d(3, 128, kernel_size=(3, 3), stride=(1, 1), padding=(1, 1))
          )
          (1): TimestepEmbedSequential(
            (0): ResBlock(
              (in_layers): Sequential(
                (0): GroupNorm32(32, 128, eps=1e-05, affine=True)
                (1): SiLU()
                (2): Conv2d(128, 128, kernel_size=(3, 3), stride=(1, 1), padding=(1, 1))
              )
              (h_upd): Identity()
              (x_upd): Identity()
              (emb_layers): Sequential(
                (0): SiLU()
                (1): Linear(in_features=512, out_features=256, bias=True)
              )
              (out_layers): Sequential(
                (0): GroupNorm32(32, 128, eps=1e-05, affine=True)
                (1): SiLU()
                (2): Dropout(p=0.0, inplace=False)
                (3): Conv2d(128, 128, kernel_size=(3, 3), stride=(1, 1), padding=(1, 1))
              )
              (skip_connection): Identity()
            )
          )
          (2): TimestepEmbedSequential(
            (0): ResBlock(
              (in_layers): Sequential(
                (0): GroupNorm32(32, 128, eps=1e-05, affine=True)
                (1): SiLU()
                (2): Conv2d(128, 128, kernel_size=(3, 3), stride=(1, 1), padding=(1, 1))
              )
              (h_upd): Downsample(
                (op): AvgPool2d(kernel_size=2, stride=2, padding=0)
              )
              (x_upd): Downsample(
                (op): AvgPool2d(kernel_size=2, stride=2, padding=0)
              )
              (emb_layers): Sequential(
                (0): SiLU()
                (1): Linear(in_features=512, out_features=256, bias=True)
              )
              (out_layers): Sequential(
                (0): GroupNorm32(32, 128, eps=1e-05, affine=True)
                (1): SiLU()
                (2): Dropout(p=0.0, inplace=False)
                (3): Conv2d(128, 128, kernel_size=(3, 3), stride=(1, 1), padding=(1, 1))
              )
              (skip_connection): Identity()
            )
          )
          (3): TimestepEmbedSequential(
            (0): ResBlock(
              (in_layers): Sequential(
                (0): GroupNorm32(32, 128, eps=1e-05, affine=True)
                (1): SiLU()
                (2): Conv2d(128, 128, kernel_size=(3, 3), stride=(1, 1), padding=(1, 1))
              )
              (h_upd): Identity()
              (x_upd): Identity()
              (emb_layers): Sequential(
                (0): SiLU()
                (1): Linear(in_features=512, out_features=256, bias=True)
              )
              (out_layers): Sequential(
                (0): GroupNorm32(32, 128, eps=1e-05, affine=True)
                (1): SiLU()
                (2): Dropout(p=0.0, inplace=False)
                (3): Conv2d(128, 128, kernel_size=(3, 3), stride=(1, 1), padding=(1, 1))
              )
              (skip_connection): Identity()
            )
          )
          (4): TimestepEmbedSequential(
            (0): ResBlock(
              (in_layers): Sequential(
                (0): GroupNorm32(32, 128, eps=1e-05, affine=True)
                (1): SiLU()
                (2): Conv2d(128, 128, kernel_size=(3, 3), stride=(1, 1), padding=(1, 1))
              )
              (h_upd): Downsample(
                (op): AvgPool2d(kernel_size=2, stride=2, padding=0)
              )
              (x_upd): Downsample(
                (op): AvgPool2d(kernel_size=2, stride=2, padding=0)
              )
              (emb_layers): Sequential(
                (0): SiLU()
                (1): Linear(in_features=512, out_features=256, bias=True)
              )
              (out_layers): Sequential(
                (0): GroupNorm32(32, 128, eps=1e-05, affine=True)
                (1): SiLU()
                (2): Dropout(p=0.0, inplace=False)
                (3): Conv2d(128, 128, kernel_size=(3, 3), stride=(1, 1), padding=(1, 1))
              )
              (skip_connection): Identity()
            )
          )
          (5): TimestepEmbedSequential(
            (0): ResBlock(
              (in_layers): Sequential(
                (0): GroupNorm32(32, 128, eps=1e-05, affine=True)
                (1): SiLU()
                (2): Conv2d(128, 256, kernel_size=(3, 3), stride=(1, 1), padding=(1, 1))
              )
              (h_upd): Identity()
              (x_upd): Identity()
              (emb_layers): Sequential(
                (0): SiLU()
                (1): Linear(in_features=512, out_features=512, bias=True)
              )
              (out_layers): Sequential(
                (0): GroupNorm32(32, 256, eps=1e-05, affine=True)
                (1): SiLU()
                (2): Dropout(p=0.0, inplace=False)
                (3): Conv2d(256, 256, kernel_size=(3, 3), stride=(1, 1), padding=(1, 1))
              )
              (skip_connection): Conv2d(128, 256, kernel_size=(1, 1), stride=(1, 1))
            )
          )
          (6): TimestepEmbedSequential(
            (0): ResBlock(
              (in_layers): Sequential(
                (0): GroupNorm32(32, 256, eps=1e-05, affine=True)
                (1): SiLU()
                (2): Conv2d(256, 256, kernel_size=(3, 3), stride=(1, 1), padding=(1, 1))
              )
              (h_upd): Downsample(
                (op): AvgPool2d(kernel_size=2, stride=2, padding=0)
              )
              (x_upd): Downsample(
                (op): AvgPool2d(kernel_size=2, stride=2, padding=0)
              )
              (emb_layers): Sequential(
                (0): SiLU()
                (1): Linear(in_features=512, out_features=512, bias=True)
              )
              (out_layers): Sequential(
                (0): GroupNorm32(32, 256, eps=1e-05, affine=True)
                (1): SiLU()
                (2): Dropout(p=0.0, inplace=False)
                (3): Conv2d(256, 256, kernel_size=(3, 3), stride=(1, 1), padding=(1, 1))
              )
              (skip_connection): Identity()
            )
          )
          (7): TimestepEmbedSequential(
            (0): ResBlock(
              (in_layers): Sequential(
                (0): GroupNorm32(32, 256, eps=1e-05, affine=True)
                (1): SiLU()
                (2): Conv2d(256, 256, kernel_size=(3, 3), stride=(1, 1), padding=(1, 1))
              )
              (h_upd): Identity()
              (x_upd): Identity()
              (emb_layers): Sequential(
                (0): SiLU()
                (1): Linear(in_features=512, out_features=512, bias=True)
              )
              (out_layers): Sequential(
                (0): GroupNorm32(32, 256, eps=1e-05, affine=True)
                (1): SiLU()
                (2): Dropout(p=0.0, inplace=False)
                (3): Conv2d(256, 256, kernel_size=(3, 3), stride=(1, 1), padding=(1, 1))
              )
              (skip_connection): Identity()
            )
          )
          (8): TimestepEmbedSequential(
            (0): ResBlock(
              (in_layers): Sequential(
                (0): GroupNorm32(32, 256, eps=1e-05, affine=True)
                (1): SiLU()
                (2): Conv2d(256, 256, kernel_size=(3, 3), stride=(1, 1), padding=(1, 1))
              )
              (h_upd): Downsample(
                (op): AvgPool2d(kernel_size=2, stride=2, padding=0)
              )
              (x_upd): Downsample(
                (op): AvgPool2d(kernel_size=2, stride=2, padding=0)
              )
              (emb_layers): Sequential(
                (0): SiLU()
                (1): Linear(in_features=512, out_features=512, bias=True)
              )
              (out_layers): Sequential(
                (0): GroupNorm32(32, 256, eps=1e-05, affine=True)
                (1): SiLU()
                (2): Dropout(p=0.0, inplace=False)
                (3): Conv2d(256, 256, kernel_size=(3, 3), stride=(1, 1), padding=(1, 1))
              )
              (skip_connection): Identity()
            )
          )
          (9): TimestepEmbedSequential(
            (0): ResBlock(
              (in_layers): Sequential(
                (0): GroupNorm32(32, 256, eps=1e-05, affine=True)
                (1): SiLU()
                (2): Conv2d(256, 512, kernel_size=(3, 3), stride=(1, 1), padding=(1, 1))
              )
              (h_upd): Identity()
              (x_upd): Identity()
              (emb_layers): Sequential(
                (0): SiLU()
                (1): Linear(in_features=512, out_features=1024, bias=True)
              )
              (out_layers): Sequential(
                (0): GroupNorm32(32, 512, eps=1e-05, affine=True)
                (1): SiLU()
                (2): Dropout(p=0.0, inplace=False)
                (3): Conv2d(512, 512, kernel_size=(3, 3), stride=(1, 1), padding=(1, 1))
              )
              (skip_connection): Conv2d(256, 512, kernel_size=(1, 1), stride=(1, 1))
            )
            (1): AttentionBlock(
              (norm): GroupNorm32(32, 512, eps=1e-05, affine=True)
              (qkv): Conv1d(512, 1536, kernel_size=(1,), stride=(1,))
              (attention): QKVAttentionLegacy()
              (proj_out): Conv1d(512, 512, kernel_size=(1,), stride=(1,))
            )
          )
          (10): TimestepEmbedSequential(
            (0): ResBlock(
              (in_layers): Sequential(
                (0): GroupNorm32(32, 512, eps=1e-05, affine=True)
                (1): SiLU()
                (2): Conv2d(512, 512, kernel_size=(3, 3), stride=(1, 1), padding=(1, 1))
              )
              (h_upd): Downsample(
                (op): AvgPool2d(kernel_size=2, stride=2, padding=0)
              )
              (x_upd): Downsample(
                (op): AvgPool2d(kernel_size=2, stride=2, padding=0)
              )
              (emb_layers): Sequential(
                (0): SiLU()
                (1): Linear(in_features=512, out_features=1024, bias=True)
              )
              (out_layers): Sequential(
                (0): GroupNorm32(32, 512, eps=1e-05, affine=True)
                (1): SiLU()
                (2): Dropout(p=0.0, inplace=False)
                (3): Conv2d(512, 512, kernel_size=(3, 3), stride=(1, 1), padding=(1, 1))
              )
              (skip_connection): Identity()
            )
          )
          (11): TimestepEmbedSequential(
            (0): ResBlock(
              (in_layers): Sequential(
                (0): GroupNorm32(32, 512, eps=1e-05, affine=True)
                (1): SiLU()
                (2): Conv2d(512, 512, kernel_size=(3, 3), stride=(1, 1), padding=(1, 1))
              )
              (h_upd): Identity()
              (x_upd): Identity()
              (emb_layers): Sequential(
                (0): SiLU()
                (1): Linear(in_features=512, out_features=1024, bias=True)
              )
              (out_layers): Sequential(
                (0): GroupNorm32(32, 512, eps=1e-05, affine=True)
                (1): SiLU()
                (2): Dropout(p=0.0, inplace=False)
                (3): Conv2d(512, 512, kernel_size=(3, 3), stride=(1, 1), padding=(1, 1))
              )
              (skip_connection): Identity()
            )
          )
        )
        (middle_block): TimestepEmbedSequential(
          (0): ResBlock(
            (in_layers): Sequential(
              (0): GroupNorm32(32, 512, eps=1e-05, affine=True)
              (1): SiLU()
              (2): Conv2d(512, 512, kernel_size=(3, 3), stride=(1, 1), padding=(1, 1))
            )
            (h_upd): Identity()
            (x_upd): Identity()
            (emb_layers): Sequential(
              (0): SiLU()
              (1): Linear(in_features=512, out_features=1024, bias=True)
            )
            (out_layers): Sequential(
              (0): GroupNorm32(32, 512, eps=1e-05, affine=True)
              (1): SiLU()
              (2): Dropout(p=0.0, inplace=False)
              (3): Conv2d(512, 512, kernel_size=(3, 3), stride=(1, 1), padding=(1, 1))
            )
            (skip_connection): Identity()
          )
          (1): AttentionBlock(
            (norm): GroupNorm32(32, 512, eps=1e-05, affine=True)
            (qkv): Conv1d(512, 1536, kernel_size=(1,), stride=(1,))
            (attention): QKVAttentionLegacy()
            (proj_out): Conv1d(512, 512, kernel_size=(1,), stride=(1,))
          )
          (2): ResBlock(
            (in_layers): Sequential(
              (0): GroupNorm32(32, 512, eps=1e-05, affine=True)
              (1): SiLU()
              (2): Conv2d(512, 512, kernel_size=(3, 3), stride=(1, 1), padding=(1, 1))
            )
            (h_upd): Identity()
            (x_upd): Identity()
            (emb_layers): Sequential(
              (0): SiLU()
              (1): Linear(in_features=512, out_features=1024, bias=True)
            )
            (out_layers): Sequential(
              (0): GroupNorm32(32, 512, eps=1e-05, affine=True)
              (1): SiLU()
              (2): Dropout(p=0.0, inplace=False)
              (3): Conv2d(512, 512, kernel_size=(3, 3), stride=(1, 1), padding=(1, 1))
            )
            (skip_connection): Identity()
          )
        )
        (output_blocks): ModuleList(
          (0): TimestepEmbedSequential(
            (0): ResBlock(
              (in_layers): Sequential(
                (0): GroupNorm32(32, 1024, eps=1e-05, affine=True)
                (1): SiLU()
                (2): Conv2d(1024, 512, kernel_size=(3, 3), stride=(1, 1), padding=(1, 1))
              )
              (h_upd): Identity()
              (x_upd): Identity()
              (emb_layers): Sequential(
                (0): SiLU()
                (1): Linear(in_features=512, out_features=1024, bias=True)
              )
              (out_layers): Sequential(
                (0): GroupNorm32(32, 512, eps=1e-05, affine=True)
                (1): SiLU()
                (2): Dropout(p=0.0, inplace=False)
                (3): Conv2d(512, 512, kernel_size=(3, 3), stride=(1, 1), padding=(1, 1))
              )
              (skip_connection): Conv2d(1024, 512, kernel_size=(1, 1), stride=(1, 1))
            )
          )
          (1): TimestepEmbedSequential(
            (0): ResBlock(
              (in_layers): Sequential(
                (0): GroupNorm32(32, 1024, eps=1e-05, affine=True)
                (1): SiLU()
                (2): Conv2d(1024, 512, kernel_size=(3, 3), stride=(1, 1), padding=(1, 1))
              )
              (h_upd): Identity()
              (x_upd): Identity()
              (emb_layers): Sequential(
                (0): SiLU()
                (1): Linear(in_features=512, out_features=1024, bias=True)
              )
              (out_layers): Sequential(
                (0): GroupNorm32(32, 512, eps=1e-05, affine=True)
                (1): SiLU()
                (2): Dropout(p=0.0, inplace=False)
                (3): Conv2d(512, 512, kernel_size=(3, 3), stride=(1, 1), padding=(1, 1))
              )
              (skip_connection): Conv2d(1024, 512, kernel_size=(1, 1), stride=(1, 1))
            )
            (1): ResBlock(
              (in_layers): Sequential(
                (0): GroupNorm32(32, 512, eps=1e-05, affine=True)
                (1): SiLU()
                (2): Conv2d(512, 512, kernel_size=(3, 3), stride=(1, 1), padding=(1, 1))
              )
              (h_upd): Upsample()
              (x_upd): Upsample()
              (emb_layers): Sequential(
                (0): SiLU()
                (1): Linear(in_features=512, out_features=1024, bias=True)
              )
              (out_layers): Sequential(
                (0): GroupNorm32(32, 512, eps=1e-05, affine=True)
                (1): SiLU()
                (2): Dropout(p=0.0, inplace=False)
                (3): Conv2d(512, 512, kernel_size=(3, 3), stride=(1, 1), padding=(1, 1))
              )
              (skip_connection): Identity()
            )
          )
          (2): TimestepEmbedSequential(
            (0): ResBlock(
              (in_layers): Sequential(
                (0): GroupNorm32(32, 1024, eps=1e-05, affine=True)
                (1): SiLU()
                (2): Conv2d(1024, 512, kernel_size=(3, 3), stride=(1, 1), padding=(1, 1))
              )
              (h_upd): Identity()
              (x_upd): Identity()
              (emb_layers): Sequential(
                (0): SiLU()
                (1): Linear(in_features=512, out_features=1024, bias=True)
              )
              (out_layers): Sequential(
                (0): GroupNorm32(32, 512, eps=1e-05, affine=True)
                (1): SiLU()
                (2): Dropout(p=0.0, inplace=False)
                (3): Conv2d(512, 512, kernel_size=(3, 3), stride=(1, 1), padding=(1, 1))
              )
              (skip_connection): Conv2d(1024, 512, kernel_size=(1, 1), stride=(1, 1))
            )
            (1): AttentionBlock(
              (norm): GroupNorm32(32, 512, eps=1e-05, affine=True)
              (qkv): Conv1d(512, 1536, kernel_size=(1,), stride=(1,))
              (attention): QKVAttentionLegacy()
              (proj_out): Conv1d(512, 512, kernel_size=(1,), stride=(1,))
            )
          )
          (3): TimestepEmbedSequential(
            (0): ResBlock(
              (in_layers): Sequential(
                (0): GroupNorm32(32, 768, eps=1e-05, affine=True)
                (1): SiLU()
                (2): Conv2d(768, 512, kernel_size=(3, 3), stride=(1, 1), padding=(1, 1))
              )
              (h_upd): Identity()
              (x_upd): Identity()
              (emb_layers): Sequential(
                (0): SiLU()
                (1): Linear(in_features=512, out_features=1024, bias=True)
              )
              (out_layers): Sequential(
                (0): GroupNorm32(32, 512, eps=1e-05, affine=True)
                (1): SiLU()
                (2): Dropout(p=0.0, inplace=False)
                (3): Conv2d(512, 512, kernel_size=(3, 3), stride=(1, 1), padding=(1, 1))
              )
              (skip_connection): Conv2d(768, 512, kernel_size=(1, 1), stride=(1, 1))
            )
            (1): AttentionBlock(
              (norm): GroupNorm32(32, 512, eps=1e-05, affine=True)
              (qkv): Conv1d(512, 1536, kernel_size=(1,), stride=(1,))
              (attention): QKVAttentionLegacy()
              (proj_out): Conv1d(512, 512, kernel_size=(1,), stride=(1,))
            )
            (2): ResBlock(
              (in_layers): Sequential(
                (0): GroupNorm32(32, 512, eps=1e-05, affine=True)
                (1): SiLU()
                (2): Conv2d(512, 512, kernel_size=(3, 3), stride=(1, 1), padding=(1, 1))
              )
              (h_upd): Upsample()
              (x_upd): Upsample()
              (emb_layers): Sequential(
                (0): SiLU()
                (1): Linear(in_features=512, out_features=1024, bias=True)
              )
              (out_layers): Sequential(
                (0): GroupNorm32(32, 512, eps=1e-05, affine=True)
                (1): SiLU()
                (2): Dropout(p=0.0, inplace=False)
                (3): Conv2d(512, 512, kernel_size=(3, 3), stride=(1, 1), padding=(1, 1))
              )
              (skip_connection): Identity()
            )
          )
          (4): TimestepEmbedSequential(
            (0): ResBlock(
              (in_layers): Sequential(
                (0): GroupNorm32(32, 768, eps=1e-05, affine=True)
                (1): SiLU()
                (2): Conv2d(768, 256, kernel_size=(3, 3), stride=(1, 1), padding=(1, 1))
              )
              (h_upd): Identity()
              (x_upd): Identity()
              (emb_layers): Sequential(
                (0): SiLU()
                (1): Linear(in_features=512, out_features=512, bias=True)
              )
              (out_layers): Sequential(
                (0): GroupNorm32(32, 256, eps=1e-05, affine=True)
                (1): SiLU()
                (2): Dropout(p=0.0, inplace=False)
                (3): Conv2d(256, 256, kernel_size=(3, 3), stride=(1, 1), padding=(1, 1))
              )
              (skip_connection): Conv2d(768, 256, kernel_size=(1, 1), stride=(1, 1))
            )
          )
          (5): TimestepEmbedSequential(
            (0): ResBlock(
              (in_layers): Sequential(
                (0): GroupNorm32(32, 512, eps=1e-05, affine=True)
                (1): SiLU()
                (2): Conv2d(512, 256, kernel_size=(3, 3), stride=(1, 1), padding=(1, 1))
              )
              (h_upd): Identity()
              (x_upd): Identity()
              (emb_layers): Sequential(
                (0): SiLU()
                (1): Linear(in_features=512, out_features=512, bias=True)
              )
              (out_layers): Sequential(
                (0): GroupNorm32(32, 256, eps=1e-05, affine=True)
                (1): SiLU()
                (2): Dropout(p=0.0, inplace=False)
                (3): Conv2d(256, 256, kernel_size=(3, 3), stride=(1, 1), padding=(1, 1))
              )
              (skip_connection): Conv2d(512, 256, kernel_size=(1, 1), stride=(1, 1))
            )
            (1): ResBlock(
              (in_layers): Sequential(
                (0): GroupNorm32(32, 256, eps=1e-05, affine=True)
                (1): SiLU()
                (2): Conv2d(256, 256, kernel_size=(3, 3), stride=(1, 1), padding=(1, 1))
              )
              (h_upd): Upsample()
              (x_upd): Upsample()
              (emb_layers): Sequential(
                (0): SiLU()
                (1): Linear(in_features=512, out_features=512, bias=True)
              )
              (out_layers): Sequential(
                (0): GroupNorm32(32, 256, eps=1e-05, affine=True)
                (1): SiLU()
                (2): Dropout(p=0.0, inplace=False)
                (3): Conv2d(256, 256, kernel_size=(3, 3), stride=(1, 1), padding=(1, 1))
              )
              (skip_connection): Identity()
            )
          )
          (6): TimestepEmbedSequential(
            (0): ResBlock(
              (in_layers): Sequential(
                (0): GroupNorm32(32, 512, eps=1e-05, affine=True)
                (1): SiLU()
                (2): Conv2d(512, 256, kernel_size=(3, 3), stride=(1, 1), padding=(1, 1))
              )
              (h_upd): Identity()
              (x_upd): Identity()
              (emb_layers): Sequential(
                (0): SiLU()
                (1): Linear(in_features=512, out_features=512, bias=True)
              )
              (out_layers): Sequential(
                (0): GroupNorm32(32, 256, eps=1e-05, affine=True)
                (1): SiLU()
                (2): Dropout(p=0.0, inplace=False)
                (3): Conv2d(256, 256, kernel_size=(3, 3), stride=(1, 1), padding=(1, 1))
              )
              (skip_connection): Conv2d(512, 256, kernel_size=(1, 1), stride=(1, 1))
            )
          )
          (7): TimestepEmbedSequential(
            (0): ResBlock(
              (in_layers): Sequential(
                (0): GroupNorm32(32, 384, eps=1e-05, affine=True)
                (1): SiLU()
                (2): Conv2d(384, 256, kernel_size=(3, 3), stride=(1, 1), padding=(1, 1))
              )
              (h_upd): Identity()
              (x_upd): Identity()
              (emb_layers): Sequential(
                (0): SiLU()
                (1): Linear(in_features=512, out_features=512, bias=True)
              )
              (out_layers): Sequential(
                (0): GroupNorm32(32, 256, eps=1e-05, affine=True)
                (1): SiLU()
                (2): Dropout(p=0.0, inplace=False)
                (3): Conv2d(256, 256, kernel_size=(3, 3), stride=(1, 1), padding=(1, 1))
              )
              (skip_connection): Conv2d(384, 256, kernel_size=(1, 1), stride=(1, 1))
            )
            (1): ResBlock(
              (in_layers): Sequential(
                (0): GroupNorm32(32, 256, eps=1e-05, affine=True)
                (1): SiLU()
                (2): Conv2d(256, 256, kernel_size=(3, 3), stride=(1, 1), padding=(1, 1))
              )
              (h_upd): Upsample()
              (x_upd): Upsample()
              (emb_layers): Sequential(
                (0): SiLU()
                (1): Linear(in_features=512, out_features=512, bias=True)
              )
              (out_layers): Sequential(
                (0): GroupNorm32(32, 256, eps=1e-05, affine=True)
                (1): SiLU()
                (2): Dropout(p=0.0, inplace=False)
                (3): Conv2d(256, 256, kernel_size=(3, 3), stride=(1, 1), padding=(1, 1))
              )
              (skip_connection): Identity()
            )
          )
          (8): TimestepEmbedSequential(
            (0): ResBlock(
              (in_layers): Sequential(
                (0): GroupNorm32(32, 384, eps=1e-05, affine=True)
                (1): SiLU()
                (2): Conv2d(384, 128, kernel_size=(3, 3), stride=(1, 1), padding=(1, 1))
              )
              (h_upd): Identity()
              (x_upd): Identity()
              (emb_layers): Sequential(
                (0): SiLU()
                (1): Linear(in_features=512, out_features=256, bias=True)
              )
              (out_layers): Sequential(
                (0): GroupNorm32(32, 128, eps=1e-05, affine=True)
                (1): SiLU()
                (2): Dropout(p=0.0, inplace=False)
                (3): Conv2d(128, 128, kernel_size=(3, 3), stride=(1, 1), padding=(1, 1))
              )
              (skip_connection): Conv2d(384, 128, kernel_size=(1, 1), stride=(1, 1))
            )
          )
          (9): TimestepEmbedSequential(
            (0): ResBlock(
              (in_layers): Sequential(
                (0): GroupNorm32(32, 256, eps=1e-05, affine=True)
                (1): SiLU()
                (2): Conv2d(256, 128, kernel_size=(3, 3), stride=(1, 1), padding=(1, 1))
              )
              (h_upd): Identity()
              (x_upd): Identity()
              (emb_layers): Sequential(
                (0): SiLU()
                (1): Linear(in_features=512, out_features=256, bias=True)
              )
              (out_layers): Sequential(
                (0): GroupNorm32(32, 128, eps=1e-05, affine=True)
                (1): SiLU()
                (2): Dropout(p=0.0, inplace=False)
                (3): Conv2d(128, 128, kernel_size=(3, 3), stride=(1, 1), padding=(1, 1))
              )
              (skip_connection): Conv2d(256, 128, kernel_size=(1, 1), stride=(1, 1))
            )
            (1): ResBlock(
              (in_layers): Sequential(
                (0): GroupNorm32(32, 128, eps=1e-05, affine=True)
                (1): SiLU()
                (2): Conv2d(128, 128, kernel_size=(3, 3), stride=(1, 1), padding=(1, 1))
              )
              (h_upd): Upsample()
              (x_upd): Upsample()
              (emb_layers): Sequential(
                (0): SiLU()
                (1): Linear(in_features=512, out_features=256, bias=True)
              )
              (out_layers): Sequential(
                (0): GroupNorm32(32, 128, eps=1e-05, affine=True)
                (1): SiLU()
                (2): Dropout(p=0.0, inplace=False)
                (3): Conv2d(128, 128, kernel_size=(3, 3), stride=(1, 1), padding=(1, 1))
              )
              (skip_connection): Identity()
            )
          )
          (10-11): 2 x TimestepEmbedSequential(
            (0): ResBlock(
              (in_layers): Sequential(
                (0): GroupNorm32(32, 256, eps=1e-05, affine=True)
                (1): SiLU()
                (2): Conv2d(256, 128, kernel_size=(3, 3), stride=(1, 1), padding=(1, 1))
              )
              (h_upd): Identity()
              (x_upd): Identity()
              (emb_layers): Sequential(
                (0): SiLU()
                (1): Linear(in_features=512, out_features=256, bias=True)
              )
              (out_layers): Sequential(
                (0): GroupNorm32(32, 128, eps=1e-05, affine=True)
                (1): SiLU()
                (2): Dropout(p=0.0, inplace=False)
                (3): Conv2d(128, 128, kernel_size=(3, 3), stride=(1, 1), padding=(1, 1))
              )
              (skip_connection): Conv2d(256, 128, kernel_size=(1, 1), stride=(1, 1))
            )
          )
        )
        (out): Sequential(
          (0): GroupNorm32(32, 128, eps=1e-05, affine=True)
          (1): SiLU()
          (2): Conv2d(128, 6, kernel_size=(3, 3), stride=(1, 1), padding=(1, 1))
        )
      )
    )
    (target_gan_wrapper): DDPMDDIMWrapper(
      (generator): UNetModel(
        (time_embed): Sequential(
          (0): Linear(in_features=128, out_features=512, bias=True)
          (1): SiLU()
          (2): Linear(in_features=512, out_features=512, bias=True)
        )
        (input_blocks): ModuleList(
          (0): TimestepEmbedSequential(
            (0): Conv2d(3, 128, kernel_size=(3, 3), stride=(1, 1), padding=(1, 1))
          )
          (1): TimestepEmbedSequential(
            (0): ResBlock(
              (in_layers): Sequential(
                (0): GroupNorm32(32, 128, eps=1e-05, affine=True)
                (1): SiLU()
                (2): Conv2d(128, 128, kernel_size=(3, 3), stride=(1, 1), padding=(1, 1))
              )
              (h_upd): Identity()
              (x_upd): Identity()
              (emb_layers): Sequential(
                (0): SiLU()
                (1): Linear(in_features=512, out_features=256, bias=True)
              )
              (out_layers): Sequential(
                (0): GroupNorm32(32, 128, eps=1e-05, affine=True)
                (1): SiLU()
                (2): Dropout(p=0.0, inplace=False)
                (3): Conv2d(128, 128, kernel_size=(3, 3), stride=(1, 1), padding=(1, 1))
              )
              (skip_connection): Identity()
            )
          )
          (2): TimestepEmbedSequential(
            (0): ResBlock(
              (in_layers): Sequential(
                (0): GroupNorm32(32, 128, eps=1e-05, affine=True)
                (1): SiLU()
                (2): Conv2d(128, 128, kernel_size=(3, 3), stride=(1, 1), padding=(1, 1))
              )
              (h_upd): Downsample(
                (op): AvgPool2d(kernel_size=2, stride=2, padding=0)
              )
              (x_upd): Downsample(
                (op): AvgPool2d(kernel_size=2, stride=2, padding=0)
              )
              (emb_layers): Sequential(
                (0): SiLU()
                (1): Linear(in_features=512, out_features=256, bias=True)
              )
              (out_layers): Sequential(
                (0): GroupNorm32(32, 128, eps=1e-05, affine=True)
                (1): SiLU()
                (2): Dropout(p=0.0, inplace=False)
                (3): Conv2d(128, 128, kernel_size=(3, 3), stride=(1, 1), padding=(1, 1))
              )
              (skip_connection): Identity()
            )
          )
          (3): TimestepEmbedSequential(
            (0): ResBlock(
              (in_layers): Sequential(
                (0): GroupNorm32(32, 128, eps=1e-05, affine=True)
                (1): SiLU()
                (2): Conv2d(128, 128, kernel_size=(3, 3), stride=(1, 1), padding=(1, 1))
              )
              (h_upd): Identity()
              (x_upd): Identity()
              (emb_layers): Sequential(
                (0): SiLU()
                (1): Linear(in_features=512, out_features=256, bias=True)
              )
              (out_layers): Sequential(
                (0): GroupNorm32(32, 128, eps=1e-05, affine=True)
                (1): SiLU()
                (2): Dropout(p=0.0, inplace=False)
                (3): Conv2d(128, 128, kernel_size=(3, 3), stride=(1, 1), padding=(1, 1))
              )
              (skip_connection): Identity()
            )
          )
          (4): TimestepEmbedSequential(
            (0): ResBlock(
              (in_layers): Sequential(
                (0): GroupNorm32(32, 128, eps=1e-05, affine=True)
                (1): SiLU()
                (2): Conv2d(128, 128, kernel_size=(3, 3), stride=(1, 1), padding=(1, 1))
              )
              (h_upd): Downsample(
                (op): AvgPool2d(kernel_size=2, stride=2, padding=0)
              )
              (x_upd): Downsample(
                (op): AvgPool2d(kernel_size=2, stride=2, padding=0)
              )
              (emb_layers): Sequential(
                (0): SiLU()
                (1): Linear(in_features=512, out_features=256, bias=True)
              )
              (out_layers): Sequential(
                (0): GroupNorm32(32, 128, eps=1e-05, affine=True)
                (1): SiLU()
                (2): Dropout(p=0.0, inplace=False)
                (3): Conv2d(128, 128, kernel_size=(3, 3), stride=(1, 1), padding=(1, 1))
              )
              (skip_connection): Identity()
            )
          )
          (5): TimestepEmbedSequential(
            (0): ResBlock(
              (in_layers): Sequential(
                (0): GroupNorm32(32, 128, eps=1e-05, affine=True)
                (1): SiLU()
                (2): Conv2d(128, 256, kernel_size=(3, 3), stride=(1, 1), padding=(1, 1))
              )
              (h_upd): Identity()
              (x_upd): Identity()
              (emb_layers): Sequential(
                (0): SiLU()
                (1): Linear(in_features=512, out_features=512, bias=True)
              )
              (out_layers): Sequential(
                (0): GroupNorm32(32, 256, eps=1e-05, affine=True)
                (1): SiLU()
                (2): Dropout(p=0.0, inplace=False)
                (3): Conv2d(256, 256, kernel_size=(3, 3), stride=(1, 1), padding=(1, 1))
              )
              (skip_connection): Conv2d(128, 256, kernel_size=(1, 1), stride=(1, 1))
            )
          )
          (6): TimestepEmbedSequential(
            (0): ResBlock(
              (in_layers): Sequential(
                (0): GroupNorm32(32, 256, eps=1e-05, affine=True)
                (1): SiLU()
                (2): Conv2d(256, 256, kernel_size=(3, 3), stride=(1, 1), padding=(1, 1))
              )
              (h_upd): Downsample(
                (op): AvgPool2d(kernel_size=2, stride=2, padding=0)
              )
              (x_upd): Downsample(
                (op): AvgPool2d(kernel_size=2, stride=2, padding=0)
              )
              (emb_layers): Sequential(
                (0): SiLU()
                (1): Linear(in_features=512, out_features=512, bias=True)
              )
              (out_layers): Sequential(
                (0): GroupNorm32(32, 256, eps=1e-05, affine=True)
                (1): SiLU()
                (2): Dropout(p=0.0, inplace=False)
                (3): Conv2d(256, 256, kernel_size=(3, 3), stride=(1, 1), padding=(1, 1))
              )
              (skip_connection): Identity()
            )
          )
          (7): TimestepEmbedSequential(
            (0): ResBlock(
              (in_layers): Sequential(
                (0): GroupNorm32(32, 256, eps=1e-05, affine=True)
                (1): SiLU()
                (2): Conv2d(256, 256, kernel_size=(3, 3), stride=(1, 1), padding=(1, 1))
              )
              (h_upd): Identity()
              (x_upd): Identity()
              (emb_layers): Sequential(
                (0): SiLU()
                (1): Linear(in_features=512, out_features=512, bias=True)
              )
              (out_layers): Sequential(
                (0): GroupNorm32(32, 256, eps=1e-05, affine=True)
                (1): SiLU()
                (2): Dropout(p=0.0, inplace=False)
                (3): Conv2d(256, 256, kernel_size=(3, 3), stride=(1, 1), padding=(1, 1))
              )
              (skip_connection): Identity()
            )
          )
          (8): TimestepEmbedSequential(
            (0): ResBlock(
              (in_layers): Sequential(
                (0): GroupNorm32(32, 256, eps=1e-05, affine=True)
                (1): SiLU()
                (2): Conv2d(256, 256, kernel_size=(3, 3), stride=(1, 1), padding=(1, 1))
              )
              (h_upd): Downsample(
                (op): AvgPool2d(kernel_size=2, stride=2, padding=0)
              )
              (x_upd): Downsample(
                (op): AvgPool2d(kernel_size=2, stride=2, padding=0)
              )
              (emb_layers): Sequential(
                (0): SiLU()
                (1): Linear(in_features=512, out_features=512, bias=True)
              )
              (out_layers): Sequential(
                (0): GroupNorm32(32, 256, eps=1e-05, affine=True)
                (1): SiLU()
                (2): Dropout(p=0.0, inplace=False)
                (3): Conv2d(256, 256, kernel_size=(3, 3), stride=(1, 1), padding=(1, 1))
              )
              (skip_connection): Identity()
            )
          )
          (9): TimestepEmbedSequential(
            (0): ResBlock(
              (in_layers): Sequential(
                (0): GroupNorm32(32, 256, eps=1e-05, affine=True)
                (1): SiLU()
                (2): Conv2d(256, 512, kernel_size=(3, 3), stride=(1, 1), padding=(1, 1))
              )
              (h_upd): Identity()
              (x_upd): Identity()
              (emb_layers): Sequential(
                (0): SiLU()
                (1): Linear(in_features=512, out_features=1024, bias=True)
              )
              (out_layers): Sequential(
                (0): GroupNorm32(32, 512, eps=1e-05, affine=True)
                (1): SiLU()
                (2): Dropout(p=0.0, inplace=False)
                (3): Conv2d(512, 512, kernel_size=(3, 3), stride=(1, 1), padding=(1, 1))
              )
              (skip_connection): Conv2d(256, 512, kernel_size=(1, 1), stride=(1, 1))
            )
            (1): AttentionBlock(
              (norm): GroupNorm32(32, 512, eps=1e-05, affine=True)
              (qkv): Conv1d(512, 1536, kernel_size=(1,), stride=(1,))
              (attention): QKVAttentionLegacy()
              (proj_out): Conv1d(512, 512, kernel_size=(1,), stride=(1,))
            )
          )
          (10): TimestepEmbedSequential(
            (0): ResBlock(
              (in_layers): Sequential(
                (0): GroupNorm32(32, 512, eps=1e-05, affine=True)
                (1): SiLU()
                (2): Conv2d(512, 512, kernel_size=(3, 3), stride=(1, 1), padding=(1, 1))
              )
              (h_upd): Downsample(
                (op): AvgPool2d(kernel_size=2, stride=2, padding=0)
              )
              (x_upd): Downsample(
                (op): AvgPool2d(kernel_size=2, stride=2, padding=0)
              )
              (emb_layers): Sequential(
                (0): SiLU()
                (1): Linear(in_features=512, out_features=1024, bias=True)
              )
              (out_layers): Sequential(
                (0): GroupNorm32(32, 512, eps=1e-05, affine=True)
                (1): SiLU()
                (2): Dropout(p=0.0, inplace=False)
                (3): Conv2d(512, 512, kernel_size=(3, 3), stride=(1, 1), padding=(1, 1))
              )
              (skip_connection): Identity()
            )
          )
          (11): TimestepEmbedSequential(
            (0): ResBlock(
              (in_layers): Sequential(
                (0): GroupNorm32(32, 512, eps=1e-05, affine=True)
                (1): SiLU()
                (2): Conv2d(512, 512, kernel_size=(3, 3), stride=(1, 1), padding=(1, 1))
              )
              (h_upd): Identity()
              (x_upd): Identity()
              (emb_layers): Sequential(
                (0): SiLU()
                (1): Linear(in_features=512, out_features=1024, bias=True)
              )
              (out_layers): Sequential(
                (0): GroupNorm32(32, 512, eps=1e-05, affine=True)
                (1): SiLU()
                (2): Dropout(p=0.0, inplace=False)
                (3): Conv2d(512, 512, kernel_size=(3, 3), stride=(1, 1), padding=(1, 1))
              )
              (skip_connection): Identity()
            )
          )
        )
        (middle_block): TimestepEmbedSequential(
          (0): ResBlock(
            (in_layers): Sequential(
              (0): GroupNorm32(32, 512, eps=1e-05, affine=True)
              (1): SiLU()
              (2): Conv2d(512, 512, kernel_size=(3, 3), stride=(1, 1), padding=(1, 1))
            )
            (h_upd): Identity()
            (x_upd): Identity()
            (emb_layers): Sequential(
              (0): SiLU()
              (1): Linear(in_features=512, out_features=1024, bias=True)
            )
            (out_layers): Sequential(
              (0): GroupNorm32(32, 512, eps=1e-05, affine=True)
              (1): SiLU()
              (2): Dropout(p=0.0, inplace=False)
              (3): Conv2d(512, 512, kernel_size=(3, 3), stride=(1, 1), padding=(1, 1))
            )
            (skip_connection): Identity()
          )
          (1): AttentionBlock(
            (norm): GroupNorm32(32, 512, eps=1e-05, affine=True)
            (qkv): Conv1d(512, 1536, kernel_size=(1,), stride=(1,))
            (attention): QKVAttentionLegacy()
            (proj_out): Conv1d(512, 512, kernel_size=(1,), stride=(1,))
          )
          (2): ResBlock(
            (in_layers): Sequential(
              (0): GroupNorm32(32, 512, eps=1e-05, affine=True)
              (1): SiLU()
              (2): Conv2d(512, 512, kernel_size=(3, 3), stride=(1, 1), padding=(1, 1))
            )
            (h_upd): Identity()
            (x_upd): Identity()
            (emb_layers): Sequential(
              (0): SiLU()
              (1): Linear(in_features=512, out_features=1024, bias=True)
            )
            (out_layers): Sequential(
              (0): GroupNorm32(32, 512, eps=1e-05, affine=True)
              (1): SiLU()
              (2): Dropout(p=0.0, inplace=False)
              (3): Conv2d(512, 512, kernel_size=(3, 3), stride=(1, 1), padding=(1, 1))
            )
            (skip_connection): Identity()
          )
        )
        (output_blocks): ModuleList(
          (0): TimestepEmbedSequential(
            (0): ResBlock(
              (in_layers): Sequential(
                (0): GroupNorm32(32, 1024, eps=1e-05, affine=True)
                (1): SiLU()
                (2): Conv2d(1024, 512, kernel_size=(3, 3), stride=(1, 1), padding=(1, 1))
              )
              (h_upd): Identity()
              (x_upd): Identity()
              (emb_layers): Sequential(
                (0): SiLU()
                (1): Linear(in_features=512, out_features=1024, bias=True)
              )
              (out_layers): Sequential(
                (0): GroupNorm32(32, 512, eps=1e-05, affine=True)
                (1): SiLU()
                (2): Dropout(p=0.0, inplace=False)
                (3): Conv2d(512, 512, kernel_size=(3, 3), stride=(1, 1), padding=(1, 1))
              )
              (skip_connection): Conv2d(1024, 512, kernel_size=(1, 1), stride=(1, 1))
            )
          )
          (1): TimestepEmbedSequential(
            (0): ResBlock(
              (in_layers): Sequential(
                (0): GroupNorm32(32, 1024, eps=1e-05, affine=True)
                (1): SiLU()
                (2): Conv2d(1024, 512, kernel_size=(3, 3), stride=(1, 1), padding=(1, 1))
              )
              (h_upd): Identity()
              (x_upd): Identity()
              (emb_layers): Sequential(
                (0): SiLU()
                (1): Linear(in_features=512, out_features=1024, bias=True)
              )
              (out_layers): Sequential(
                (0): GroupNorm32(32, 512, eps=1e-05, affine=True)
                (1): SiLU()
                (2): Dropout(p=0.0, inplace=False)
                (3): Conv2d(512, 512, kernel_size=(3, 3), stride=(1, 1), padding=(1, 1))
              )
              (skip_connection): Conv2d(1024, 512, kernel_size=(1, 1), stride=(1, 1))
            )
            (1): ResBlock(
              (in_layers): Sequential(
                (0): GroupNorm32(32, 512, eps=1e-05, affine=True)
                (1): SiLU()
                (2): Conv2d(512, 512, kernel_size=(3, 3), stride=(1, 1), padding=(1, 1))
              )
              (h_upd): Upsample()
              (x_upd): Upsample()
              (emb_layers): Sequential(
                (0): SiLU()
                (1): Linear(in_features=512, out_features=1024, bias=True)
              )
              (out_layers): Sequential(
                (0): GroupNorm32(32, 512, eps=1e-05, affine=True)
                (1): SiLU()
                (2): Dropout(p=0.0, inplace=False)
                (3): Conv2d(512, 512, kernel_size=(3, 3), stride=(1, 1), padding=(1, 1))
              )
              (skip_connection): Identity()
            )
          )
          (2): TimestepEmbedSequential(
            (0): ResBlock(
              (in_layers): Sequential(
                (0): GroupNorm32(32, 1024, eps=1e-05, affine=True)
                (1): SiLU()
                (2): Conv2d(1024, 512, kernel_size=(3, 3), stride=(1, 1), padding=(1, 1))
              )
              (h_upd): Identity()
              (x_upd): Identity()
              (emb_layers): Sequential(
                (0): SiLU()
                (1): Linear(in_features=512, out_features=1024, bias=True)
              )
              (out_layers): Sequential(
                (0): GroupNorm32(32, 512, eps=1e-05, affine=True)
                (1): SiLU()
                (2): Dropout(p=0.0, inplace=False)
                (3): Conv2d(512, 512, kernel_size=(3, 3), stride=(1, 1), padding=(1, 1))
              )
              (skip_connection): Conv2d(1024, 512, kernel_size=(1, 1), stride=(1, 1))
            )
            (1): AttentionBlock(
              (norm): GroupNorm32(32, 512, eps=1e-05, affine=True)
              (qkv): Conv1d(512, 1536, kernel_size=(1,), stride=(1,))
              (attention): QKVAttentionLegacy()
              (proj_out): Conv1d(512, 512, kernel_size=(1,), stride=(1,))
            )
          )
          (3): TimestepEmbedSequential(
            (0): ResBlock(
              (in_layers): Sequential(
                (0): GroupNorm32(32, 768, eps=1e-05, affine=True)
                (1): SiLU()
                (2): Conv2d(768, 512, kernel_size=(3, 3), stride=(1, 1), padding=(1, 1))
              )
              (h_upd): Identity()
              (x_upd): Identity()
              (emb_layers): Sequential(
                (0): SiLU()
                (1): Linear(in_features=512, out_features=1024, bias=True)
              )
              (out_layers): Sequential(
                (0): GroupNorm32(32, 512, eps=1e-05, affine=True)
                (1): SiLU()
                (2): Dropout(p=0.0, inplace=False)
                (3): Conv2d(512, 512, kernel_size=(3, 3), stride=(1, 1), padding=(1, 1))
              )
              (skip_connection): Conv2d(768, 512, kernel_size=(1, 1), stride=(1, 1))
            )
            (1): AttentionBlock(
              (norm): GroupNorm32(32, 512, eps=1e-05, affine=True)
              (qkv): Conv1d(512, 1536, kernel_size=(1,), stride=(1,))
              (attention): QKVAttentionLegacy()
              (proj_out): Conv1d(512, 512, kernel_size=(1,), stride=(1,))
            )
            (2): ResBlock(
              (in_layers): Sequential(
                (0): GroupNorm32(32, 512, eps=1e-05, affine=True)
                (1): SiLU()
                (2): Conv2d(512, 512, kernel_size=(3, 3), stride=(1, 1), padding=(1, 1))
              )
              (h_upd): Upsample()
              (x_upd): Upsample()
              (emb_layers): Sequential(
                (0): SiLU()
                (1): Linear(in_features=512, out_features=1024, bias=True)
              )
              (out_layers): Sequential(
                (0): GroupNorm32(32, 512, eps=1e-05, affine=True)
                (1): SiLU()
                (2): Dropout(p=0.0, inplace=False)
                (3): Conv2d(512, 512, kernel_size=(3, 3), stride=(1, 1), padding=(1, 1))
              )
              (skip_connection): Identity()
            )
          )
          (4): TimestepEmbedSequential(
            (0): ResBlock(
              (in_layers): Sequential(
                (0): GroupNorm32(32, 768, eps=1e-05, affine=True)
                (1): SiLU()
                (2): Conv2d(768, 256, kernel_size=(3, 3), stride=(1, 1), padding=(1, 1))
              )
              (h_upd): Identity()
              (x_upd): Identity()
              (emb_layers): Sequential(
                (0): SiLU()
                (1): Linear(in_features=512, out_features=512, bias=True)
              )
              (out_layers): Sequential(
                (0): GroupNorm32(32, 256, eps=1e-05, affine=True)
                (1): SiLU()
                (2): Dropout(p=0.0, inplace=False)
                (3): Conv2d(256, 256, kernel_size=(3, 3), stride=(1, 1), padding=(1, 1))
              )
              (skip_connection): Conv2d(768, 256, kernel_size=(1, 1), stride=(1, 1))
            )
          )
          (5): TimestepEmbedSequential(
            (0): ResBlock(
              (in_layers): Sequential(
                (0): GroupNorm32(32, 512, eps=1e-05, affine=True)
                (1): SiLU()
                (2): Conv2d(512, 256, kernel_size=(3, 3), stride=(1, 1), padding=(1, 1))
              )
              (h_upd): Identity()
              (x_upd): Identity()
              (emb_layers): Sequential(
                (0): SiLU()
                (1): Linear(in_features=512, out_features=512, bias=True)
              )
              (out_layers): Sequential(
                (0): GroupNorm32(32, 256, eps=1e-05, affine=True)
                (1): SiLU()
                (2): Dropout(p=0.0, inplace=False)
                (3): Conv2d(256, 256, kernel_size=(3, 3), stride=(1, 1), padding=(1, 1))
              )
              (skip_connection): Conv2d(512, 256, kernel_size=(1, 1), stride=(1, 1))
            )
            (1): ResBlock(
              (in_layers): Sequential(
                (0): GroupNorm32(32, 256, eps=1e-05, affine=True)
                (1): SiLU()
                (2): Conv2d(256, 256, kernel_size=(3, 3), stride=(1, 1), padding=(1, 1))
              )
              (h_upd): Upsample()
              (x_upd): Upsample()
              (emb_layers): Sequential(
                (0): SiLU()
                (1): Linear(in_features=512, out_features=512, bias=True)
              )
              (out_layers): Sequential(
                (0): GroupNorm32(32, 256, eps=1e-05, affine=True)
                (1): SiLU()
                (2): Dropout(p=0.0, inplace=False)
                (3): Conv2d(256, 256, kernel_size=(3, 3), stride=(1, 1), padding=(1, 1))
              )
              (skip_connection): Identity()
            )
          )
          (6): TimestepEmbedSequential(
            (0): ResBlock(
              (in_layers): Sequential(
                (0): GroupNorm32(32, 512, eps=1e-05, affine=True)
                (1): SiLU()
                (2): Conv2d(512, 256, kernel_size=(3, 3), stride=(1, 1), padding=(1, 1))
              )
              (h_upd): Identity()
              (x_upd): Identity()
              (emb_layers): Sequential(
                (0): SiLU()
                (1): Linear(in_features=512, out_features=512, bias=True)
              )
              (out_layers): Sequential(
                (0): GroupNorm32(32, 256, eps=1e-05, affine=True)
                (1): SiLU()
                (2): Dropout(p=0.0, inplace=False)
                (3): Conv2d(256, 256, kernel_size=(3, 3), stride=(1, 1), padding=(1, 1))
              )
              (skip_connection): Conv2d(512, 256, kernel_size=(1, 1), stride=(1, 1))
            )
          )
          (7): TimestepEmbedSequential(
            (0): ResBlock(
              (in_layers): Sequential(
                (0): GroupNorm32(32, 384, eps=1e-05, affine=True)
                (1): SiLU()
                (2): Conv2d(384, 256, kernel_size=(3, 3), stride=(1, 1), padding=(1, 1))
              )
              (h_upd): Identity()
              (x_upd): Identity()
              (emb_layers): Sequential(
                (0): SiLU()
                (1): Linear(in_features=512, out_features=512, bias=True)
              )
              (out_layers): Sequential(
                (0): GroupNorm32(32, 256, eps=1e-05, affine=True)
                (1): SiLU()
                (2): Dropout(p=0.0, inplace=False)
                (3): Conv2d(256, 256, kernel_size=(3, 3), stride=(1, 1), padding=(1, 1))
              )
              (skip_connection): Conv2d(384, 256, kernel_size=(1, 1), stride=(1, 1))
            )
            (1): ResBlock(
              (in_layers): Sequential(
                (0): GroupNorm32(32, 256, eps=1e-05, affine=True)
                (1): SiLU()
                (2): Conv2d(256, 256, kernel_size=(3, 3), stride=(1, 1), padding=(1, 1))
              )
              (h_upd): Upsample()
              (x_upd): Upsample()
              (emb_layers): Sequential(
                (0): SiLU()
                (1): Linear(in_features=512, out_features=512, bias=True)
              )
              (out_layers): Sequential(
                (0): GroupNorm32(32, 256, eps=1e-05, affine=True)
                (1): SiLU()
                (2): Dropout(p=0.0, inplace=False)
                (3): Conv2d(256, 256, kernel_size=(3, 3), stride=(1, 1), padding=(1, 1))
              )
              (skip_connection): Identity()
            )
          )
          (8): TimestepEmbedSequential(
            (0): ResBlock(
              (in_layers): Sequential(
                (0): GroupNorm32(32, 384, eps=1e-05, affine=True)
                (1): SiLU()
                (2): Conv2d(384, 128, kernel_size=(3, 3), stride=(1, 1), padding=(1, 1))
              )
              (h_upd): Identity()
              (x_upd): Identity()
              (emb_layers): Sequential(
                (0): SiLU()
                (1): Linear(in_features=512, out_features=256, bias=True)
              )
              (out_layers): Sequential(
                (0): GroupNorm32(32, 128, eps=1e-05, affine=True)
                (1): SiLU()
                (2): Dropout(p=0.0, inplace=False)
                (3): Conv2d(128, 128, kernel_size=(3, 3), stride=(1, 1), padding=(1, 1))
              )
              (skip_connection): Conv2d(384, 128, kernel_size=(1, 1), stride=(1, 1))
            )
          )
          (9): TimestepEmbedSequential(
            (0): ResBlock(
              (in_layers): Sequential(
                (0): GroupNorm32(32, 256, eps=1e-05, affine=True)
                (1): SiLU()
                (2): Conv2d(256, 128, kernel_size=(3, 3), stride=(1, 1), padding=(1, 1))
              )
              (h_upd): Identity()
              (x_upd): Identity()
              (emb_layers): Sequential(
                (0): SiLU()
                (1): Linear(in_features=512, out_features=256, bias=True)
              )
              (out_layers): Sequential(
                (0): GroupNorm32(32, 128, eps=1e-05, affine=True)
                (1): SiLU()
                (2): Dropout(p=0.0, inplace=False)
                (3): Conv2d(128, 128, kernel_size=(3, 3), stride=(1, 1), padding=(1, 1))
              )
              (skip_connection): Conv2d(256, 128, kernel_size=(1, 1), stride=(1, 1))
            )
            (1): ResBlock(
              (in_layers): Sequential(
                (0): GroupNorm32(32, 128, eps=1e-05, affine=True)
                (1): SiLU()
                (2): Conv2d(128, 128, kernel_size=(3, 3), stride=(1, 1), padding=(1, 1))
              )
              (h_upd): Upsample()
              (x_upd): Upsample()
              (emb_layers): Sequential(
                (0): SiLU()
                (1): Linear(in_features=512, out_features=256, bias=True)
              )
              (out_layers): Sequential(
                (0): GroupNorm32(32, 128, eps=1e-05, affine=True)
                (1): SiLU()
                (2): Dropout(p=0.0, inplace=False)
                (3): Conv2d(128, 128, kernel_size=(3, 3), stride=(1, 1), padding=(1, 1))
              )
              (skip_connection): Identity()
            )
          )
          (10-11): 2 x TimestepEmbedSequential(
            (0): ResBlock(
              (in_layers): Sequential(
                (0): GroupNorm32(32, 256, eps=1e-05, affine=True)
                (1): SiLU()
                (2): Conv2d(256, 128, kernel_size=(3, 3), stride=(1, 1), padding=(1, 1))
              )
              (h_upd): Identity()
              (x_upd): Identity()
              (emb_layers): Sequential(
                (0): SiLU()
                (1): Linear(in_features=512, out_features=256, bias=True)
              )
              (out_layers): Sequential(
                (0): GroupNorm32(32, 128, eps=1e-05, affine=True)
                (1): SiLU()
                (2): Dropout(p=0.0, inplace=False)
                (3): Conv2d(128, 128, kernel_size=(3, 3), stride=(1, 1), padding=(1, 1))
              )
              (skip_connection): Conv2d(256, 128, kernel_size=(1, 1), stride=(1, 1))
            )
          )
        )
        (out): Sequential(
          (0): GroupNorm32(32, 128, eps=1e-05, affine=True)
          (1): SiLU()
          (2): Conv2d(128, 6, kernel_size=(3, 3), stride=(1, 1), padding=(1, 1))
        )
      )
    )
  )
)
INFO:__main__:*** Evaluate ***
Rank 0 Trainer build successfully.
INFO:trainer.trainer:***** Running eval *****
INFO:trainer.trainer:  Num examples = 493
INFO:trainer.trainer:  Batch size = 1
0it [00:00, ?it/s]/home/philip/Documents/cycle-diffusion/model/lib/ddpm_ddim/utils/diffusion_utils.py:17: UserWarning: To copy construct from a tensor, it is recommended to use sourceTensor.clone().detach() or sourceTensor.clone().detach().requires_grad_(True), rather than torch.tensor(sourceTensor).
…
